…
[2024-07-27 10:45:02,493 INFO] Option: _all_transform , value: {'filtertoolong', 'sentencepiece', 'suffix', 'prefix'} overriding model: {'filtertoolong'}
[2024-07-27 10:45:02,493 INFO] Building model...
[2024-07-27 10:45:11,703 INFO] Switching model to float32 for amp/apex_amp
[2024-07-27 10:45:11,703 INFO] Non quantized layer compute is fp16
[2024-07-27 10:45:11,703 INFO] Updating vocabulary embeddings with checkpoint embeddings
[2024-07-27 10:45:13,505 INFO] src: 14782 new tokens
[2024-07-27 10:45:17,443 INFO] tgt: 14782 new tokens
[2024-07-27 10:45:20,019 INFO] NMTModel(
  (encoder): TransformerEncoder(
    (embeddings): Embeddings(
      (make_embedding): Sequential(
        (emb_luts): Elementwise(
          (0): Embedding(270987, 1024, padding_idx=2)
        )
        (pe): PositionalEncoding()
      )
      (dropout): Dropout(p=0.1, inplace=False)
    )
    (transformer): ModuleList(
      (0-23): 24 x TransformerEncoderLayer(
        (self_attn): MultiHeadedAttention(
          (linear_keys): Linear(in_features=1024, out_features=1024, bias=True)
          (linear_values): Linear(in_features=1024, out_features=1024, bias=True)
          (linear_query): Linear(in_features=1024, out_features=1024, bias=True)
          (softmax): Softmax(dim=-1)
          (dropout): Dropout(p=0.1, inplace=False)
          (final_linear): Linear(in_features=1024, out_features=1024, bias=True)
        )
        (feed_forward): PositionwiseFeedForward(
          (w_1): Linear(in_features=1024, out_features=4096, bias=True)
          (w_2): Linear(in_features=4096, out_features=1024, bias=True)
          (layer_norm): LayerNorm((1024,), eps=1e-06, elementwise_affine=True)
          (dropout_1): Dropout(p=0.1, inplace=False)
          (dropout_2): Dropout(p=0.1, inplace=False)
        )
        (layer_norm): LayerNorm((1024,), eps=1e-06, elementwise_affine=True)
        (dropout): Dropout(p=0.1, inplace=False)
      )
    )
    (layer_norm): LayerNorm((1024,), eps=1e-06, elementwise_affine=True)
  )
  (decoder): TransformerDecoder(
    (embeddings): Embeddings(
      (make_embedding): Sequential(
        (emb_luts): Elementwise(
          (0): Embedding(270987, 1024, padding_idx=2)
        )
        (pe): PositionalEncoding()
      )
      (dropout): Dropout(p=0.1, inplace=False)
    )
    (layer_norm): LayerNorm((1024,), eps=1e-06, elementwise_affine=True)
    (transformer_layers): ModuleList(
      (0-23): 24 x TransformerDecoderLayer(
        (self_attn): MultiHeadedAttention(
          (linear_keys): Linear(in_features=1024, out_features=1024, bias=True)
          (linear_values): Linear(in_features=1024, out_features=1024, bias=True)
          (linear_query): Linear(in_features=1024, out_features=1024, bias=True)
          (softmax): Softmax(dim=-1)
          (dropout): Dropout(p=0.1, inplace=False)
          (final_linear): Linear(in_features=1024, out_features=1024, bias=True)
        )
        (feed_forward): PositionwiseFeedForward(
          (w_1): Linear(in_features=1024, out_features=4096, bias=True)
          (w_2): Linear(in_features=4096, out_features=1024, bias=True)
          (layer_norm): LayerNorm((1024,), eps=1e-06, elementwise_affine=True)
          (dropout_1): Dropout(p=0.1, inplace=False)
          (dropout_2): Dropout(p=0.1, inplace=False)
        )
        (layer_norm_1): LayerNorm((1024,), eps=1e-06, elementwise_affine=True)
        (dropout): Dropout(p=0.1, inplace=False)
        (context_attn): MultiHeadedAttention(
          (linear_keys): Linear(in_features=1024, out_features=1024, bias=True)
          (linear_values): Linear(in_features=1024, out_features=1024, bias=True)
          (linear_query): Linear(in_features=1024, out_features=1024, bias=True)
          (softmax): Softmax(dim=-1)
          (dropout): Dropout(p=0.1, inplace=False)
          (final_linear): Linear(in_features=1024, out_features=1024, bias=True)
        )
        (layer_norm_2): LayerNorm((1024,), eps=1e-06, elementwise_affine=True)
      )
    )
  )
  (generator): Linear(in_features=1024, out_features=270987, bias=True)
)
[2024-07-27 10:45:20,028 INFO] encoder: 579802112
[2024-07-27 10:45:20,028 INFO] decoder: 403393163
[2024-07-27 10:45:20,028 INFO] * number of parameters: 983195275
[2024-07-27 10:45:20,031 INFO] Trainable parameters = {'torch.float32': 983195275, 'torch.float16': 0, 'torch.uint8': 0, 'torch.int8': 0}
[2024-07-27 10:45:20,031 INFO] Non trainable parameters = {'torch.float32': 0, 'torch.float16': 0, 'torch.uint8': 0, 'torch.int8': 0}
…
