…
[2024-07-30 13:31:36,567 INFO] Option: _all_transform , value: {'filtertoolong', 'suffix', 'prefix', 'sentencepiece'} overriding model: {'filtertoolong'}
[2024-07-30 13:31:36,567 INFO] Building model...
[2024-07-30 13:31:44,363 INFO] Switching model to float32 for amp/apex_amp
[2024-07-30 13:31:44,363 INFO] Non quantized layer compute is fp16
[2024-07-30 13:31:44,363 INFO] Updating vocabulary embeddings with checkpoint embeddings
[2024-07-30 13:31:47,429 INFO] src: 0 new tokens
[2024-07-30 13:31:53,193 INFO] tgt: 0 new tokens
[2024-07-30 13:31:54,364 INFO] NMTModel(
  (encoder): TransformerEncoder(
    (embeddings): Embeddings(
      (make_embedding): Sequential(
        (emb_luts): Elementwise(
          (0): Embedding(256206, 1024, padding_idx=1)
        )
        (pe): PositionalEncoding()
      )
      (dropout): Dropout(p=0.2, inplace=False)
    )
    (transformer): ModuleList(
      (0-11): 12 x TransformerEncoderLayer(
        (self_attn): MultiHeadedAttention(
          (linear_keys): Linear(in_features=1024, out_features=1024, bias=True)
          (linear_values): Linear(in_features=1024, out_features=1024, bias=True)
          (linear_query): Linear(in_features=1024, out_features=1024, bias=True)
          (softmax): Softmax(dim=-1)
          (dropout): Dropout(p=0.2, inplace=False)
          (final_linear): Linear(in_features=1024, out_features=1024, bias=True)
        )
        (feed_forward): PositionwiseFeedForward(
          (w_1): Linear(in_features=1024, out_features=1024, bias=True)
          (w_2): Linear(in_features=1024, out_features=1024, bias=True)
          (layer_norm): LayerNorm((1024,), eps=1e-06, elementwise_affine=True)
          (dropout_1): Dropout(p=0.2, inplace=False)
          (dropout_2): Dropout(p=0.2, inplace=False)
        )
        (layer_norm): LayerNorm((1024,), eps=1e-06, elementwise_affine=True)
        (dropout): Dropout(p=0.2, inplace=False)
      )
    )
    (layer_norm): LayerNorm((1024,), eps=1e-06, elementwise_affine=True)
  )
  (decoder): TransformerDecoder(
    (embeddings): Embeddings(
      (make_embedding): Sequential(
        (emb_luts): Elementwise(
          (0): Embedding(256206, 1024, padding_idx=1)
        )
        (pe): PositionalEncoding()
      )
      (dropout): Dropout(p=0.2, inplace=False)
    )
    (layer_norm): LayerNorm((1024,), eps=1e-06, elementwise_affine=True)
    (transformer_layers): ModuleList(
      (0-11): 12 x TransformerDecoderLayer(
        (self_attn): MultiHeadedAttention(
          (linear_keys): Linear(in_features=1024, out_features=1024, bias=True)
          (linear_values): Linear(in_features=1024, out_features=1024, bias=True)
          (linear_query): Linear(in_features=1024, out_features=1024, bias=True)
          (softmax): Softmax(dim=-1)
          (dropout): Dropout(p=0.2, inplace=False)
          (final_linear): Linear(in_features=1024, out_features=1024, bias=True)
        )
        (feed_forward): PositionwiseFeedForward(
          (w_1): Linear(in_features=1024, out_features=1024, bias=True)
          (w_2): Linear(in_features=1024, out_features=1024, bias=True)
          (layer_norm): LayerNorm((1024,), eps=1e-06, elementwise_affine=True)
          (dropout_1): Dropout(p=0.2, inplace=False)
          (dropout_2): Dropout(p=0.2, inplace=False)
        )
        (layer_norm_1): LayerNorm((1024,), eps=1e-06, elementwise_affine=True)
        (dropout): Dropout(p=0.2, inplace=False)
        (context_attn): MultiHeadedAttention(
          (linear_keys): Linear(in_features=1024, out_features=1024, bias=True)
          (linear_values): Linear(in_features=1024, out_features=1024, bias=True)
          (linear_query): Linear(in_features=1024, out_features=1024, bias=True)
          (softmax): Softmax(dim=-1)
          (dropout): Dropout(p=0.2, inplace=False)
          (final_linear): Linear(in_features=1024, out_features=1024, bias=True)
        )
        (layer_norm_2): LayerNorm((1024,), eps=1e-06, elementwise_affine=True)
      )
    )
  )
  (generator): Linear(in_features=1024, out_features=256206, bias=True)
)
[2024-07-30 13:31:54,372 INFO] encoder: 337977344
[2024-07-30 13:31:54,372 INFO] decoder: 126283982
[2024-07-30 13:31:54,372 INFO] * number of parameters: 464261326
[2024-07-30 13:31:54,374 INFO] Trainable parameters = {'torch.float32': 464261326, 'torch.float16': 0, 'torch.uint8': 0, 'torch.int8': 0}
[2024-07-30 13:31:54,374 INFO] Non trainable parameters = {'torch.float32': 0, 'torch.float16': 0, 'torch.uint8': 0, 'torch.int8': 0}
…
