…
[2024-07-29 14:34:07,162 INFO] Option: log_file , value: /root/zindi-nmt/logs/trainnllb-200-600M-zindi_V16.log overriding model: /root/zindi-nmt/logs/trainnllb-200-600M-zindi_V15.log
[2024-07-29 14:34:07,163 INFO] Building model...
[2024-07-29 14:34:09,425 INFO] Switching model to float32 for amp/apex_amp
[2024-07-29 14:34:09,425 INFO] Non quantized layer compute is fp16
[2024-07-29 14:34:09,425 INFO] Updating vocabulary embeddings with checkpoint embeddings
[2024-07-29 14:34:09,583 INFO] src: 0 new tokens
[2024-07-29 14:34:09,882 INFO] tgt: 0 new tokens
[2024-07-29 14:34:10,242 INFO] NMTModel(
  (encoder): TransformerEncoder(
    (embeddings): Embeddings(
      (make_embedding): Sequential(
        (emb_luts): Elementwise(
          (0): Embedding(24013, 1024, padding_idx=2)
        )
        (pe): PositionalEncoding()
      )
      (dropout): Dropout(p=0.5, inplace=False)
    )
    (transformer): ModuleList(
      (0-11): 12 x TransformerEncoderLayer(
        (self_attn): MultiHeadedAttention(
          (linear_keys): Linear(in_features=1024, out_features=1024, bias=True)
          (linear_values): Linear(in_features=1024, out_features=1024, bias=True)
          (linear_query): Linear(in_features=1024, out_features=1024, bias=True)
          (softmax): Softmax(dim=-1)
          (dropout): Dropout(p=0.3, inplace=False)
          (final_linear): Linear(in_features=1024, out_features=1024, bias=True)
        )
        (feed_forward): PositionwiseFeedForward(
          (w_1): Linear(in_features=1024, out_features=512, bias=True)
          (w_2): Linear(in_features=512, out_features=1024, bias=True)
          (layer_norm): LayerNorm((1024,), eps=1e-06, elementwise_affine=True)
          (dropout_1): Dropout(p=0.5, inplace=False)
          (dropout_2): Dropout(p=0.5, inplace=False)
        )
        (layer_norm): LayerNorm((1024,), eps=1e-06, elementwise_affine=True)
        (dropout): Dropout(p=0.5, inplace=False)
      )
    )
    (layer_norm): LayerNorm((1024,), eps=1e-06, elementwise_affine=True)
  )
  (decoder): TransformerDecoder(
    (embeddings): Embeddings(
      (make_embedding): Sequential(
        (emb_luts): Elementwise(
          (0): Embedding(24013, 1024, padding_idx=2)
        )
        (pe): PositionalEncoding()
      )
      (dropout): Dropout(p=0.5, inplace=False)
    )
    (layer_norm): LayerNorm((1024,), eps=1e-06, elementwise_affine=True)
    (transformer_layers): ModuleList(
      (0-11): 12 x TransformerDecoderLayer(
        (self_attn): MultiHeadedAttention(
          (linear_keys): Linear(in_features=1024, out_features=1024, bias=True)
          (linear_values): Linear(in_features=1024, out_features=1024, bias=True)
          (linear_query): Linear(in_features=1024, out_features=1024, bias=True)
          (softmax): Softmax(dim=-1)
          (dropout): Dropout(p=0.3, inplace=False)
          (final_linear): Linear(in_features=1024, out_features=1024, bias=True)
        )
        (feed_forward): PositionwiseFeedForward(
          (w_1): Linear(in_features=1024, out_features=512, bias=True)
          (w_2): Linear(in_features=512, out_features=1024, bias=True)
          (layer_norm): LayerNorm((1024,), eps=1e-06, elementwise_affine=True)
          (dropout_1): Dropout(p=0.5, inplace=False)
          (dropout_2): Dropout(p=0.5, inplace=False)
        )
        (layer_norm_1): LayerNorm((1024,), eps=1e-06, elementwise_affine=True)
        (dropout): Dropout(p=0.5, inplace=False)
        (context_attn): MultiHeadedAttention(
          (linear_keys): Linear(in_features=1024, out_features=1024, bias=True)
          (linear_values): Linear(in_features=1024, out_features=1024, bias=True)
          (linear_query): Linear(in_features=1024, out_features=1024, bias=True)
          (softmax): Softmax(dim=-1)
          (dropout): Dropout(p=0.3, inplace=False)
          (final_linear): Linear(in_features=1024, out_features=1024, bias=True)
        )
        (layer_norm_2): LayerNorm((1024,), eps=1e-06, elementwise_affine=True)
      )
    )
  )
  (generator): Linear(in_features=1024, out_features=24013, bias=True)
)
[2024-07-29 14:34:10,247 INFO] encoder: 87622656
[2024-07-29 14:34:10,247 INFO] decoder: 113462733
[2024-07-29 14:34:10,247 INFO] * number of parameters: 201085389
[2024-07-29 14:34:10,249 INFO] Trainable parameters = {'torch.float32': 201085389, 'torch.float16': 0, 'torch.uint8': 0, 'torch.int8': 0}
[2024-07-29 14:34:10,249 INFO] Non trainable parameters = {'torch.float32': 0, 'torch.float16': 0, 'torch.uint8': 0, 'torch.int8': 0}
…
